model_first_order.pth (torch, 2208 bytes, 3 tensors)

hidden_layer.weight f4 [10, 1]
0.51339495 -1.1202633 -1.142897 1.3343881 1.1680651 -0.3943813 1.102216 2.5526786
0.019262424 -0.32342893
00000000: da6d 033f ca64 8fbf 734a 92bf 3bcd aa3f
00000010: 2883 953f 59ec c9be 6a15 8d3f 165f 2340
00000020: 3bcc 9d3c 7a98 a5be

hidden_layer.bias f4 [10]
-0.96416634 1.7793504 0.46968964 0.7364292 -1.2839553 1.0771871 -1.8667847 -4.5779495
0.4490885 2.7363355
00000000: 9bd3 76bf c1c1 e33f 297b f03e a086 3c3f
00000010: a658 a4bf 44e1 893f cdf2 eebf 907e 92c0
00000020: eeee e53e 1f20 2f40

output_layer.weight f4 [1, 10]
2.1253705 -1.3897665 0.7458625 -0.44518453 2.4657395 -0.6653393 1.8781074 4.135952
0.98146534 -1.6544865
00000000: 1206 0840 dee3 b1bf d8f0 3e3f 3aef e3be
00000010: adce 1d40 ad53 2abf d365 f03f b859 8440
00000020: 5041 7b3f 37c6 d3bf
