model_second_order.pth (torch, 2216 bytes, 3 tensors)

hidden_layer.weight f4 [10, 1]
-0.3028575 0.4621377 0.6417199 -0.7472718 0.35979462 -1.399514 0.47188333 -0.17893451
-1.5930468 2.2310812
00000000: 2310 9bbe 509d ec3e c147 243f 344d 3fbf
00000010: 0037 b83e 4623 b3bf b19a f13e 9c3a 37be
00000020: f5e8 cbbf 09ca 0e40

hidden_layer.bias f4 [10]
0.8385671 0.37666944 -0.28776973 -0.30278167 0.4129541 2.9221158 0.4143182 -0.14697178
-2.2972395 1.3576415
00000000: 55ac 563f d1da c03e 8e56 93be 3306 9bbe
00000010: b86e d33e f203 3b40 8421 d43e c57f 16be
00000020: f905 13c0 32c7 ad3f

output_layer.weight f4 [1, 10]
2.0485582 -1.2456877 -0.5129047 -4.7061815 -1.0200063 3.4661663 -1.1815293 0.45184702
-2.2402797 0.47212997
00000000: 941b 0340 b272 9fbf b94d 03bf 0a99 96c0
00000010: 918f 82bf abd5 5d40 5a3c 97bf 7e58 e73e
00000020: be60 0fc0 05bb f13e
